hoax_detection_A3.tflite (tflite, 645756 bytes, 6 tensors)

sequential_2/dense_6/MatMul;sequential_2/dense_6/Relu;sequential_2/dense_6/BiasAdd f4 [6]
-0.005873325 0.000341991 0.4215048 0.41580644 0.36183068 0.13037004
00000000: 0575 c0bb 414d b339 7acf d73e 95e4 d43e
00000010: df41 b93e b97f 053e

sequential_2/batch_normalization/batchnorm/mul_1;sequential_2/batch_normalization/batchnorm/add_1;sequential_2/dense_6/MatMul;sequential_2/dense_6/Relu;sequential_2/dense_6/BiasAdd f4 [6, 24]
8.036612 -2.7450042 9.998944 -7.949193 -3.9844482 3.716575 11.501174 4.730781
-7.2447963 -6.992527 4.8794556 4.0685415 9.422347 0.11126647 13.87124 9.328014
0.52280396 -4.248467 2.08 4.3380666 -0.3510168 5.841642 -1.9420532 1.6899217
-1.3991472 12.201209 10.205532 -10.256276 -0.030908393 -8.846743 3.6198049 -3.6966205
3.845455 0.9265769 9.910878 -2.523981 3.0790021 4.947267 6.102394 9.687369
-2.115147 8.025919 4.947025 11.260865 -11.492927 6.678499 2.519185 -0.51542103
-13.157335 11.075616 2.5796173 -0.03748307 -9.335992 14.389694 -0.5304805 -4.2488136
4.6921077 2.729402 5.9099097 -11.518519 -5.400227 -0.36238033 -7.2490587 -0.83392143
-3.091795 -2.9942203 11.638598 -13.081916 -6.6376257 -13.353687 -11.784116 3.823368
-2.1229036 -0.8384827 -2.2243953 -7.693811 -11.307896 12.482596 -11.359485 -12.972741
0.5064754 9.958804 -8.458308 -8.918161 -4.9905734 -11.848003 -2.9177938 12.400942
-2.0939224 -11.281763 -11.547375 1.4120286 -14.604218 4.8862705 4.8603597 2.6917922
6.7346435 0.13185728 2.4838557 -4.6483517 -4.1255393 -4.359323 -2.190055 -1.7782692
11.01458 4.738494 -6.1230297 0.683384 -9.542256 -9.508263 2.6948352 11.733569
9.431298 -14.207716 7.194391 -4.4519825 6.6121826 -12.11571 -10.251652 4.5812864
-1.7243342 -0.82925683 1.2138869 3.2585914 13.046159 15.52473 -2.995308 -0.1668381
-8.084643 -12.843192 11.979701 5.267355 9.863379 10.590809 6.4389668 -3.0996983
-13.778547 -6.0344963 -2.7063913 -5.63408 9.33908 6.550987 7.089829 10.667311
00000000: f695 0041 26ae 2fc0 adfb 1f41 ca5f fec0
00000010: 3301 7fc0 5ddc 6d40 cf04 3841 8f62 9740
00000020: 5fd5 e7c0 c8c2 dfc0 8024 9c40 7e31 8240
00000030: efc1 1641 addf e33d 99f0 5d41 8c3f 1541
00000040: 7bd6 053f 71f3 87c0 b81e 0540 71d1 8a40
00000050: 79b8 b3be bbee ba40 3395 f8bf 5b4f d83f
00000060: 4117 b3bf 2738 4341 dc49 2341 b519 24c1
00000070: 9933 fdbc 428c 0dc1 e2aa 6740 6e95 6cc0
00000080: ef1b 7640 2534 6d3f f592 1e41 e888 21c0
00000090: 5f0e 4540 0350 9e40 d046 c340 77ff 1a41
000000a0: 925e 07c0 2a6a 0041 074e 9e40 812c 3441
000000b0: 07e3 37c1 44b6 d540 543a 2140 a2f2 03bf
000000c0: 7284 52c1 b935 3141 7318 2540 d987 19bd
000000d0: 3960 15c1 303c 6641 92cd 07bf 48f6 87c0
000000e0: bf25 9640 86ae 2e40 fb1d bd40 db4b 38c1
000000f0: a9ce acc0 ea89 b9be 4af8 e7c0 e07b 55bf
00000100: f8df 45c0 4ea1 3fc0 b337 3a41 874f 51c1
00000110: 6e67 d4c0 b4a8 55c1 bd8b 3cc1 10b2 7440
00000120: a7dd 07c0 cda6 56bf 7e5c 0ec0 b333 f6c0
00000130: 24ed 34c1 b7b8 4741 73c0 35c1 5990 4fc1
00000140: 5fa8 013f 4357 1f41 3b55 07c1 cab0 0ec1
00000150: c7b2 9fc0 6c91 3dc1 22bd 3ac0 426a 4641
00000160: d302 06c0 1a82 34c1 0cc2 38c1 5abd b43f
00000170: e0aa 69c1 545c 9c40 1188 9b40 5346 2c40
00000180: 3382 d740 9805 073e 7ef7 1e40 4cbf 94c0
00000190: 6b04 84c0 937f 8bc0 dc29 0cc0 539e e3bf
000001a0: b83b 3041 bea1 9740 dcef c3c0 41f2 2e3f
000001b0: 15ad 18c1 d821 18c1 2e78 2c40 b3bc 3b41
000001c0: 99e6 1641 ce52 63c1 7338 e640 a476 8ec0
000001d0: 0097 d340 f3d9 41c1 c406 24c1 e699 9240
000001e0: fcb6 dcbf 2d4a 54bf a560 9b3f c38c 5040
000001f0: 11bd 5041 4b65 7841 20b3 3fc0 9bd7 2abe
00000200: b35a 01c1 b77d 4dc1 dbac 3f41 2c8e a840
00000210: 66d0 1d41 f473 2941 040c ce40 7561 46c0
00000220: ee74 5cc1 981a c1c0 8435 2dc0 624a b4c0
00000230: df6c 1541 afa1 d140 e1df e240 4ead 2a41

sequential_2/batch_normalization_1/batchnorm/mul_1;sequential_2/batch_normalization_1/batchnorm/add_1;sequential_2/dense_7/MatMul;sequential_2/dense_7/BiasAdd f4 [1, 6]
1.0887098 4.542345 -4.4389973 -3.4362779 -2.9651732 2.3966346
00000000: d85a 8b3f e45a 9140 440c 8ec0 faeb 5bc0
00000010: 66c5 3dc0 7662 1940

sequential_2/embedding_2/embedding_lookup f4 [10000, 16]
-0.02794382 -0.020095363 -0.038365006 0.006878903 -0.009507928 0.039170634 -0.02790666 -0.021071685
0.016048396 0.04487812 -0.012739383 0.012292026 0.012450805 0.028212119 0.019747362 0.0048259846
-0.013526302 -0.014310082 -0.030174803 -0.0031333654 -0.041157696 -0.036781467 -0.0036511777 0.011832438
0.029583994 0.015453331 -0.028642107 -0.051500335 -0.011551166 0.032534193 0.00093401433 0.016142262
-0.0121001 0.023898143 0.02337324 0.009441165 0.008735084 -0.0034077733 -0.03372203 -0.041906197
0.003316979 0.059182387 0.01214826 0.0140811065 0.024994876 -0.01171714 0.009260822 0.0016942412
-0.0030841853 -0.04010899 -0.016474118 0.04916229 -0.020561574 0.018304281 -0.008918416 0.023546599
0.0043611308 0.027787348 -0.0023744327 0.024458112 0.032399893 -0.043097775 -0.039000005 -0.0054661743
-0.030852154 0.00044994237 -0.0029176967 -0.042722844 0.034206185 0.0035298052 0.036273126 0.039928786
0.013420904 0.013435843 0.035024114 -0.013807633 -0.0033080948 -0.02836243 0.007875387 0.012690264
0.009797391 0.011926555 0.005872209 -0.04888208 -0.012092047 0.058887985 0.058449943 0.012439411
-0.012185401 -5.262933e-06 -0.004351391 0.049114987 0.037749637 -0.03889956 0.051641583 -0.024092633
0.019076727 -0.003565588 -0.030550031 0.020589726 -0.016556613 0.01291433 -0.04278873 0.037636887
-0.036144175 -0.015647136 -0.035698574 -0.028704863 0.019350803 0.052780356 0.045835212 -0.03589355
0.00036089987 -0.020551212 -0.015973704 0.022725219 -0.0039058337 0.021571893 -0.030637318 0.0031925903
0.011844775 0.031261 -0.009758379 0.01723769 -0.013671364 0.022706857 -0.054184373 -0.015648652
-0.020734202 0.027529884 -0.03401335 0.023962207 -0.03464807 -0.009059051 0.015625196 -0.016151598
0.0048615937 -0.0005655081 -0.00011790906 -0.02851013 -0.048714083 -0.044121195 0.014524427 -0.026716681
-0.009117718 0.03051052 0.007198841 -0.00604795 -0.010764713 0.030798784 0.02075278 -0.036756326
-0.033896595 -0.04736159 -0.01377751 0.0474724 -0.024893973 -0.04094284 -0.015170407 0.0071728127
-0.01661496 -0.014188674 0.008574874 0.031312857 0.056350563 -0.07544879 -0.055583622 0.019811664
-0.052848067 0.014766507 0.076239005 0.01360142 0.032238122 0.041921917 -0.008999971 -0.051497336
-0.04429055 -0.009024795 -0.028238727 0.02255733 0.0024356479 -0.081998326 0.03107707 -0.03316232
-0.022212325 0.010145397 0.043966196 -0.010968559 0.028982244 -0.006865033 -0.017962007 -0.040525537
-0.07435061 0.042846035 -0.042951804 0.0429358 0.0658825 -0.024079546 -0.044250794 -0.017155414
-0.035293937 0.0629754 0.024777152 -0.045144323 -0.01282383 0.039565086 -0.08532084 -0.025932401
0.011222377 0.024481632 -0.019263854 -0.021202244 -0.0009625741 0.0129461 0.041575305 0.024957571
-0.016342606 -0.026120232 0.010597762 -0.00845354 0.024999086 -0.015183987 0.04037798 -0.041266315
0.035024658 -0.020924974 -0.017284226 -0.021007312 0.027416743 0.029580241 0.0149033945 -0.034915384
0.031043015 0.009823014 0.031524405 -0.018107798 -0.019566257 0.01055345 -0.050029032 0.032114815
-0.0046467367 0.012937885 -0.039219864 0.04343328 -0.0100593455 -0.014753873 -0.032524314 -0.01624421
-0.011783359 -0.01607708 -0.023483343 0.021269403 -0.017309396 0.0024840508 -0.032815903 -0.0069047236
00000000: 70ea e4bc 089f a4bc a024 1dbd 6c68 e13b
00000010: 24c7 1bbc 6371 203d 829c e4bc 879e acbc
00000020: ed77 833c 1fd2 373d d8b8 50bc 7e64 493c
00000030: 76fe 4b3c 1a1d e73c 38c5 a13c 4b23 9e3b
00000040: 6c9d 5dbc d674 6abc 2631 f7bc 2659 4dbb
00000050: f994 28bd 2aa8 16bd 9948 6fbb d8dc 413c
00000060: 225a f23c f82f 7d3c daa2 eabc 04f2 52bd
00000070: 1a41 3dbc 9342 053d a4d8 743a c73c 843c
00000080: 7f3f 46bc 0ac6 c33c 3d79 bf3c 1eaf 1a3c
00000090: 991d 0f3c f354 5fbb 1d20 0abd d5a5 2bbd
000000a0: ac61 593b 3b69 723d 7f09 473c 71b4 663c
000000b0: 0ec2 cc3c 3ff9 3fbc b4ba 173c 4d11 de3a
000000c0: 0b20 4abb 5349 24bd bbf4 86bc 665e 493d
000000d0: bf70 a8bc dcf2 953c 8c1e 12bc cce4 c03c
000000e0: d1e7 8e3b 4ba2 e33c 5f9c 1bbb 615c c83c
000000f0: c0b5 043d 4b87 30bd 78be 1fbd 981d b3bb
00000100: a8bd fcbc 3ee6 eb39 d436 3fbb 26fe 2ebd
00000110: c91b 0c3d 4e54 673b 2193 143d 5e8c 233d
00000120: 5ae3 5b3c 0322 5c3c 7275 0f3d 6939 62bc
00000130: 9fcc 58bb 5458 e8bc c407 013c d3ea 4f3c
00000140: 3c85 203c 9967 433c a96b c03b 9338 48bd
00000150: b91d 46bc 8734 713d 3569 6f3d acce 4b3c
00000160: 47a5 47bc 4098 b0b6 1d96 8ebb cc2c 493d
00000170: 5d9f 1a3d 2555 1fbd 2086 533d ea5d c5bc
00000180: cc46 9c3c a4ac 69bb 0f44 fabc c9ab a83c
00000190: bca1 87bc a096 533c 3c43 2fbd 2329 1a3d
000001a0: ea0b 14bd 6c2e 80bc ab38 12bd 7626 ebbc
000001b0: 9385 9e3c 3730 583d b4bd 3b3d 1d05 13bd
000001c0: 2937 bd39 045b a8bc 49db 82bc 3d2a ba3c
000001d0: 04f9 7fbb 8ab7 b03c 1dfb fabc c73a 513b
000001e0: 9610 423c 890b 003d 9ce1 1fbc 0e36 8d3c
000001f0: dbfd 5fbc bb03 ba3c 6ff0 5dbd 9a31 80bc
00000200: c6da a9bc 5a86 e13c 9551 0bbd 644c c43c
00000210: 22eb 0dbd 6a6c 14bc 6900 803c 5b50 84bc
00000220: 014e 9f3b 9b3e 14ba f245 f7b8 138e e9bc
00000230: 6b88 47bd 6db8 34bd ddf7 6d3c f1dc dabc
00000240: 7b62 15bc 33f1 f93c 41e4 eb3b e22d c6bb
00000250: 7b5e 30bc bb4d fc3c bc01 aa3c cd8d 16bd
00000260: 28d7 0abd 3afe 41bd 11bb 61bc 6b72 423d
00000270: 72ee cbbc aeb3 27bd 4c8d 78bc ea09 eb3b
00000280: 191c 88bc 9d77 68bc a17d 0c3c e941 003d
00000290: d9cf 663d e584 9abd a7ab 63bd 124c a23c
000002a0: 3777 58bd 38ef 713c 3223 9c3d 7ed8 5e3c
000002b0: 1f0c 043d 51b6 2b3d 9d74 13bc dfee 52bd
000002c0: 026a 35bd bcdc 13bc e754 e7bc 26ca b83c
000002d0: 649f 1f3b bdee a7bd 5795 fe3c 36d5 07bd
000002e0: 9ff6 b5bc e138 263c e615 343d 79b5 33bc
000002f0: 2c6c ed3c 12f4 e0bb 0f25 93bc 1bfe 25bd
00000300: 2245 98bd 537f 2f3d 3bee 2fbd 73dd 2f3d
00000310: 67ed 863d 7842 c5bc 5240 35bd 8389 8cbc
00000320: 6090 10bd 3ff9 803d 74f9 ca3c 41e9 38bd
00000330: 0b1b 52bc 000f 223d b1bc aebd 3070 d4bc
00000340: 10de 373c b48d c83c 3bcf 9dbc 54b0 adbc
00000350: 4155 7cba e11b 543c de4a 2a3d d273 cc3c
00000360: eee0 85bc 19fa d5bc 3ca2 2d3c b780 0abc
00000370: e2ca cc3c 42c6 78bc 6163 253d de06 29bd
00000380: 0476 0f3d da6a abbc a697 8dbc 8717 acbc
00000390: 1499 e03c 4352 f23c 5e2d 743c 6f03 0fbd
000003a0: ec4d fe3c b5f0 203c bc1f 013d ce56 94bc
000003b0: 6a49 a0bc 61e8 2c3c 3eeb 4cbd d38a 033d
000003c0: a743 98bb 6cf9 533c 02a5 20bd 18e7 313d
000003d0: f4cf 24bc 3bba 71bc 3738 05bd 9412 85bc
000003e0: fd0e 41bc 15b4 83bc 2460 c0bc 2c3d ae3c
000003f0: 6fcc 8dbc 75cb 223b f869 06bd 0541 e2bb

sequential_2/dense_5/BiasAdd/ReadVariableOp f4 [24]
-0.003220989 -0.015660962 -0.013351564 -0.011458263 0.0022643048 -0.015340147 0.0028457039 -0.015648443
-0.014261732 0.008823075 0.0017806545 -0.00036113552 0.0017075662 0.0012738616 0.0031181467 -0.019290704
0.0020353824 0.00093067024 -0.010880391 5.868256e-05 -0.008859595 0.00048051385 -0.0038115184 -0.01687545
00000000: 3a17 53bb 6b4b 80bc 85c0 5abc 70bb 3bbc
00000010: bb64 143b 3d55 7bbc fd7e 3a3b 2a31 80bc
00000020: 0aaa 69bc a98e 103c da64 e93a ca56 bdb9
00000030: 6ad0 df3a b4f7 a63a d259 4c3b 8a07 9ebc
00000040: 0d64 053b 39f8 733a ab43 32bc eb21 7638
00000050: d627 11bc 7aed fb39 abca 79bb 623e 8abc

sequential_2/dense_5/MatMul f4 [24, 16]
0.35405886 -0.32534027 -0.08858311 -0.19390175 0.2316522 -0.1520773 0.020812929 0.34029594
-0.012551583 -0.008096466 0.32934332 -0.20081335 0.14350009 -0.1019513 -0.34919205 0.22183606
0.1373957 -0.25317168 -0.018458528 0.36448297 0.17535421 0.3131854 -0.2733727 0.09407785
0.101859756 -0.22664075 -0.03088666 0.05552607 0.09287267 0.3623305 -0.25008824 -0.09353248
0.29528406 0.37437636 0.0629154 0.033428714 -0.04509763 -0.18361406 0.052821957 -0.24134819
0.16612023 0.04816015 0.00075851113 0.23351529 0.17515403 -0.23884626 0.112822525 0.36184296
-0.23164791 -0.19161272 0.36425987 0.017389676 0.2866993 0.06171772 0.26310462 -0.31951752
-0.029630838 0.040135838 -0.023107305 0.27712765 0.3051107 0.16735525 -0.2556854 0.20801397
-0.33589154 0.25975394 -0.040613923 0.27412882 0.15831034 -0.217461 0.28419194 0.21865116
-0.030180069 0.18335932 -0.12927628 0.24826808 0.06896687 0.37882757 -0.2219176 -0.23815995
0.32360947 -0.098901816 -0.32453927 -0.07345237 -0.14889017 -0.29191133 -0.35302275 0.12456772
-0.36217523 -0.03274044 0.010475866 -0.034703847 -0.21540387 -0.009083694 0.101833686 -0.30313605
0.06212059 -0.15803912 -0.35495552 -0.04339611 0.4508972 -0.2600817 -0.23625863 -0.19545254
-0.063130215 0.2499684 -0.17208906 0.0052399966 -0.15519863 -0.24755687 -0.20255257 0.24542415
-0.0063685174 -0.1980734 0.107269295 -0.09148443 -0.11582468 -0.05993807 0.040262323 -0.29064637
0.33515045 -0.29740107 -0.28555503 0.3074663 -0.25857443 -0.36020246 0.35425004 0.3278887
0.10781516 -0.29767573 -0.08343623 0.35651296 0.03235037 -0.01795579 -0.22608091 -0.14763066
0.124531984 -0.25361905 -0.12487058 -0.2754402 -0.38698184 -0.008784306 0.30689698 0.12323376
0.04541638 -0.31043342 0.2592363 -0.11663267 0.22879232 0.08123876 0.22299488 -0.16130452
0.13330843 -0.24571909 -0.17507663 0.18673502 -0.09359289 0.2753277 0.070829034 -0.17896089
-0.2713689 0.22636397 0.30578145 0.35201627 -0.06762993 -0.08953861 -0.1322395 0.026585568
0.0061888085 -0.28488326 0.025559856 -0.2242092 -0.13433748 -0.006655565 -0.27318662 -0.2869031
0.09116001 -0.19936535 0.2610441 0.3842953 0.085878946 -0.10743739 -0.11872581 -0.37220362
0.070817634 0.20299022 0.30344984 -0.23321651 -0.19946177 -0.13096142 0.016045474 0.10639924
-0.18839428 0.09395926 -0.3176151 0.20987663 0.210796 -0.008734166 0.3347567 -0.283138
-0.059051763 0.20851098 0.17394398 -0.23413464 -0.24945754 0.054031465 -0.35738778 -0.22509438
-0.35212168 0.047873396 -0.34787676 0.0912859 0.21166772 -0.29902035 0.04384199 0.28699404
-0.26785514 0.24372362 0.073338024 -0.06239425 -0.16905598 0.1628637 -0.16043821 -0.30586293
-0.3776174 0.03135951 -0.29132363 -0.14176938 0.023898548 -0.32490012 -0.24731612 -0.056415897
-0.13877174 -0.08454451 0.3819283 -0.017147003 0.06259323 -0.018866226 -0.07448964 -0.14430413
0.036653392 0.046088696 -0.2544445 -0.22517909 -0.2206515 -0.30812672 0.17524396 0.08315635
-0.20414776 -0.0056321826 0.3712484 -0.31200787 0.3454013 0.16460878 -0.108372115 0.17377189
00000000: 3447 b53e 0093 a6be 106b b5bd 2e8e 46be
00000010: 3c36 6d3e 27ba 1bbe e07f aa3c 453b ae3e
00000020: 28a5 4dbc 0aa7 04bc b09f a83e 04a2 4dbe
00000030: b0f1 123e d8cb d0bd 4dc9 b2be fe28 633e
00000040: 75b1 0c3e b89f 81be 5736 97bc 839d ba3e
00000050: 0e90 333e d659 a03e 82f7 8bbe e3ab c03d
00000060: d99b d03d 8314 68be 0506 fdbc 4e6f 633d
00000070: 0734 be3d 6283 b93e 910b 80be f58d bfbd
00000080: 792f 973e 42ae bf3e cad9 803d 8cec 083d
00000090: 4bb8 38bd 5305 3cbe d65b 583d fb23 77be
000000a0: 6c1b 2a3e 9443 453d d2d6 463a a21e 6f3e
000000b0: 945b 333e 1d94 74be 7f0f e73d 7b43 b93e
000000c0: 1c35 6dbe 2036 44be 4580 ba3e cb74 8e3c
000000d0: 40ca 923e b8cb 7c3d a6b5 863e cd97 a3be
000000e0: 5fbc f2bc 7a65 243d 884b bdbc ade3 8d3e
000000f0: 7837 9c3e 2d5f 2b3e 32e9 82be 9d01 553e
00000100: faf9 abbe 78fe 843e c95a 26bd 9d5a 8c3e
00000110: 1b1c 223e 19ae 5ebe 9b81 913e 17e6 5f3e
00000120: 313c f7bc 8cc2 3b3e 0061 04be fd39 7e3e
00000130: 813e 8d3d b0f5 c13e 5e3e 63be 34e0 73be
00000140: 24b0 a53e 098d cabd 032a a6be 326e 96bd
00000150: aa76 18be 6775 95be 66bf b4be 5c1d ff3d
00000160: 086f b9be d71a 06bd f7a2 2b3c 9f25 0ebd
00000170: d592 5cbe c6d3 14bc 2e8e d03d a634 9bbe
00000180: 2972 7e3d 02d5 21be bbbc b5be 1fc0 31bd
00000190: ffdb e63e 6e29 85be c8ed 71be b624 48be
000001a0: 6a4a 81bd b7f7 7f3e 1d38 30be 47b4 ab3b
000001b0: 64ec 1ebe 8c7f 7dbe f169 4fbe 7850 7b3e
000001c0: ffae d0bb c1d3 4abe 01b0 db3d 305c bbbd
000001d0: 7d35 edbd 9f81 75bd 1bea 243d 9acf 94be
000001e0: d798 ab3e f444 98be 4534 92be 396c 9d3e
000001f0: de63 84be 756c b8be 4360 b53e 07e1 a73e
00000200: 32ce dc3d f468 98be 9de0 aabd de88 b63e
00000210: d281 043d 0518 93bc c181 67be 7e2c 17be
00000220: a00a ff3d 5bda 81be 26bc ffbd 7f06 8dbe
00000230: 7c22 c6be 0dec 0fbc 9a21 9d3e fb61 fc3d
00000240: 8706 3a3d 21f1 9ebe 9fba 843e 1cdd eebd
00000250: 8948 6a3e 8260 a63d c558 643e 032d 25be
00000260: 0182 083e c99d 7bbe 4a47 33be 7737 3f3e
00000270: a1ad bfbd c1f7 8c3e d00e 913d 8641 37be
00000280: ddf0 8abe f5cb 673e 638f 9c3e 7a3b b43e
00000290: 9081 8abd 0560 b7bd cb69 07be fac9 d93c
000002a0: 7dcb ca3b 38dc 91be e762 d13c 1997 65be
000002b0: c48f 09be ed16 dabb 1edf 8bbe f7e4 92be
000002c0: 19b2 ba3d 6e26 4cbe 93a7 853e 5bc2 c43e
000002d0: 4de1 af3d 2208 dcbd 8426 f3bd 7991 bebe
000002e0: d608 913d abdc 4f3e c75d 9b3e 4fd0 6ebe
000002f0: b53f 4cbe c01a 06be cc71 833c d8e7 d93d
00000300: 6eea 40be b66d c03d 729e a2be e6e9 563e
00000310: e8da 573e bf19 0fbc 3b65 ab3e 77f7 90be
00000320: 43e0 71bd e783 553e 5f1e 323e fec0 6fbe
00000330: cc71 7fbe 1950 5d3d 88fb b6be 247f 66be
00000340: 4b49 b4be e516 443d e71c b2be 1af4 ba3d
00000350: 6cbf 583e 3219 99be a993 333d e2f0 923e
00000360: 4f24 89be af92 793e 3f32 963d 1d91 7fbd
00000370: 031d 2dbe bec5 263e ea49 24be 119a 9cbe
00000380: 1157 c1be d472 003d 5f28 95be fe2b 11be
00000390: e3c6 c33c 4f59 a6be 7040 7dbe 5b14 67bd
000003a0: 2e1a 0ebe ac25 adbd 1b8c c33e df77 8cbc
000003b0: e130 803d 588d 9abc 068e 98bd 76c4 13be
000003c0: de21 163d 80c7 3c3d 8d46 82be 5995 66be
000003d0: 78f2 61be c9c2 9dbe 2773 333e e04d aa3d
000003e0: 1c0c 51be 2c8e b8bb 4514 be3e 7fbf 9fbe
000003f0: 70d8 b03e 348f 283e 33f2 ddbd 42f1 313e
